R11943004_hw2-1 (1)/R11943004_hw2/p2/checkpoint/mynet_best.pth (torch, 719495 bytes, 10 tensors)

conv1.weight f4 [64, 3, 3, 3]
00000000: a3cf 553d 6929 b5bd 3f2e 313a 8e5c f4bc
00000010: 97a1 eabd 9df5 ddbd 0b3a b43d 8f8f 913d
00000020: 75a6 f03d e1b0 72bc 2607 1fbe 70d9 10bc
00000030: 77e5 26be ddc5 6e3d 23f2 1c3e b5c8 63bd
00000040: 4834 133e b370 1a3e 067c d3bd 2bb2 ca3d
00000050: a2fe 9c3d 2625 03bc 2508 15be c1da 333e
00000060: ca3a 0abe 398b b63d 9740 3d3d b541 cb3d
00000070: 6507 09be 7649 cebd aa8c 5ebd 1b0f 8a3d
00000080: c4a0 33bd 4648 273c 4c56 8cbd 2e4a 06be
00000090: 71f8 a2bd 6460 0f3e ee5c 7abe db13 333e
000000a0: cdd8 883b 607b 73be 3f02 6c3d 9fbe db3d
000000b0: 571e 7dbe 6e5b 8e3e c220 e83d 3b26 88bd
000000c0: 4de4 003e 13cf 5d3e afd1 b73d ba90 bc3d
000000d0: bee6 6a3d 1746 d43d 6d49 38be 0b8d 8cbe
000000e0: 9591 11be c380 e53c 65b1 fdbd 4f4d 413e
000000f0: 1dc9 913e b612 c53d 55a3 d13d 29f6 b5bd
00000100: 5b33 82be 0f06 58be 11d9 0c3e 5c48 f8bd
00000110: f2f4 c03d c9e2 773e 38e5 033e 4c20 133e
00000120: aff0 dbbd 87ab 863d d218 113b 9587 23be
00000130: 9ccb 173e f705 30bd 04da c0bd 6e70 7abd
00000140: 2434 2f3e 3e71 413d df77 6dbd bcde 8dbd
00000150: e60c 1ebd 0ed1 e83d 3f54 8c3c b52a 65be
00000160: 1c1c c9bd acaf 763e 442c af3c 8128 32be
00000170: f206 143e bdaf b2be 8e02 0ebd 4d73 9d3e
00000180: 5f59 c6be 6314 103e 7eb7 be3e 79b7 eb3d
00000190: 073f b03b d13e b83b 72f5 f1bc 981f 47be
000001a0: 830f 183e 08ba 99be 1f8c e2bd 6735 ad3e
000001b0: 8f87 70be 2e9f 77be 2854 04be 42ec 153c
000001c0: 09c1 2dbe 4a92 1fbe 19dc 4c3e 2cd7 49be
000001d0: 9464 b23c 96d5 61bd 40ab c93d b682 a23c
000001e0: bdcf 33be 9a7e 10bd 7bfc 3a3d 2882 9bbd
000001f0: 9ff6 203e 091b f43c 5bf7 603e d3ab 823e
00000200: dce6 533e a41c 0d3d e1a2 583e 3c65 4c3e
00000210: 6bbf 0dbe 8d3d c7bd d175 ea3d aa4e 03be
00000220: f739 6dbd 3b34 4f3d 618c 8cbc 067f 24be
00000230: 16b1 423d c6b4 343d a990 da3d b73d 1b3e
00000240: 252f b43d 3a89 07be 2921 35bc 4b92 bb3d
00000250: 41c2 c83b f76c 133d ee58 71bd 19c0 6d3d
00000260: 5ca3 bebd 5174 e6bd bfb0 f6bc efc8 3bbe
00000270: b0e2 293e 5354 b33d eef9 4b3e acd9 0cbe
00000280: 438f 523c 7f73 fe3c 92dd 223d e841 1bbe
00000290: 8304 1dbe 5405 bbbc 66f3 403e 9c48 83bb
000002a0: dd96 753d 9c49 9abd d23e 373e b9b5 8ebd
000002b0: 3d46 7ebe e5f4 76be 050f 053d 3bbb 1c3e
000002c0: d0da efbd 9e41 e6bc 9bed 4d3e 4129 c8bc
000002d0: 2b36 c6bc 16f6 0dbe 7f23 1ebe d648 443d
000002e0: f129 a2bd df0a be3d d716 0f3e 5443 e03d
000002f0: 6740 183e 9677 32be 38bc 3ebe f7bf 9b3d
00000300: a6f8 f33d ac39 68bd 034c a9be d6ac 7abe
00000310: f771 55bc 945c bbbb d1bb 2c3e 05ec a53e
00000320: 7e1c 953e d3c2 833e 1f38 a33e d9be 02be
00000330: 4d72 09bd 666d 04bd f5f6 a53e f90e 66be
00000340: 2b00 78bd 88e4 0fbe 87ca 9cbd 5b59 07be
00000350: e5e9 98be c277 023d 27b8 70be cb25 5a3e
00000360: 9ca3 88be 694e 11bb 4dde 943d 4567 88be
00000370: bd48 87be 0541 17bc c9b4 633d 6488 7bbe
00000380: 303f e7bd dbd0 783e feb0 963d 5cec 133e
00000390: d0c9 0c3c 3c82 18bd 86c8 0a3e d9e4 603e
000003a0: 726c 8a3b 7a94 80bc fd96 803e 3bed 1dbe
000003b0: c7ce 633d ba7d b6bd c393 e73b cfa5 563e
000003c0: dfce 593e 550a b33d aca1 13be c12d ce3d
000003d0: a0b3 11be 4095 b1be be16 dc3c e8bc 113e
000003e0: 0f7a 733e 5b74 34be 8eaf 823d 5d60 1f3e
000003f0: adbb 06b9 22ba 08be df1e bfbe 2a78 1b3e
0.05219997 -0.08845789 0.00067589054 -0.02982929 -0.11456602 -0.10837863 0.08800133 0.0710746
0.11750499 -0.014812679 -0.1553007 -0.008840904 -0.16298471 0.058294166 0.15326743 -0.05561133
0.14375412 0.15082054 -0.1032639 0.09897264 0.07665755 -0.008004462 -0.14553888 0.17563917
-0.13498989 0.08913273 0.046204176 0.09924642 -0.13381727 -0.10072605 -0.054333366 0.067411624
-0.04385449 0.010210102 -0.06852397 -0.13114235 -0.07957543 0.14001614 -0.24449512 0.17488043
0.0041762353 -0.23777533 0.05761933 0.107297175 -0.24718605 0.2780413 0.11334373 -0.06647917
0.1258709 0.21661024 0.08975541 0.09207292 0.05734896 0.10364931 -0.1799676 -0.27451357
-0.14215691 0.0280155 -0.12387351 0.18877147 0.2847375 0.096227095 0.10236231 -0.08884842
-0.25429806 -0.21096061 0.1375468 -0.121231765 0.094217196 0.24207605 0.12880409 0.14367789
-0.10739266 0.06575685 0.0022140038 -0.15969689 0.14823765 -0.04297444 -0.09416583 -0.061142378
0.17109734 0.047227137 -0.057975646 -0.06927249 -0.03858652 0.11367999 0.017130015 -0.22379573
-0.098198146 0.24090451 0.021383412 -0.17398264 0.14455774 -0.34899703 -0.034670405 0.3075203
-0.3874006 0.14070277 0.37249368 0.11509604 0.005378607 0.0056227227 -0.029535983 -0.19445646
0.14849667 -0.30024743 -0.11061882 0.33829805 -0.23489211 -0.24181816 -0.12922728 0.0091505665
-0.16968168 -0.15583149 0.20005836 -0.19710988 0.021776475 -0.055135332 0.098471165 0.019837718
-0.17559715 -0.035276987 0.04565094 -0.07593185 0.15719078 0.029798048 0.21969359 0.25521716
0.20693535 0.034451142 0.21155883 0.19960493 -0.13842551 -0.09728537 0.11448253 -0.12822977
-0.057916608 0.05058692 -0.017156782 -0.1606408 0.047532164 0.04411771 0.10672123 0.15160261
0.087980546 -0.13235942 -0.011055269 0.091587625 0.0061266725 0.03599259 -0.0589227 0.058044527
-0.09308502 -0.11252654 -0.030113576 -0.18338369 0.1659038 0.08756318 0.1991956 -0.1375491
0.012851539 0.031060932 0.039762087 -0.1516186 -0.15333752 -0.02282969 0.18842849 -0.0040064584
0.059958328 -0.07533571 0.17895058 -0.069682546 -0.24831481 -0.24116857 0.032485027 0.15305798
-0.11711657 -0.02810746 0.2011017 -0.024433734 -0.024195751 -0.13863406 -0.15443228 0.047921024
-0.07918156 0.09279417 0.13973556 0.10950342 0.14868318 -0.17428431 -0.18626487 0.07604974
0.1191266 -0.056695625 -0.33065805 -0.24479994 -0.01302766 -0.0057178233 0.16868521 0.3240663
0.291233 0.25734577 0.31878754 -0.12768115 -0.03355627 -0.032330893 0.32414976 -0.22466649
-0.060547035 -0.14052022 -0.076558165 -0.1321768 -0.29865947 0.03185249 -0.23507749 0.2130348
-0.26687324 -0.002217198 0.07268963 -0.26641288 -0.26422682 -0.00923181 0.055592332 -0.24563748
-0.11291349 0.24298422 0.07357977 0.14445633 0.008593038 -0.037233576 0.13553056 0.21962298
0.0042243535 -0.0156958 0.25115195 -0.15422527 0.05561712 -0.08910699 0.007067175 0.20961688
0.21270321 0.08742205 -0.14417142 0.100673206 -0.14228678 -0.3468418 0.026866313 0.14232218
0.2377703 -0.17622511 0.06381141 0.15564103 -0.0001284915 -0.13352254 -0.3732824 0.15182558

conv1.bias f4 [64]
00000000: acd5 d03d de7e eabe 1e3e acbd 9e26 8ebd
00000010: 6948 7bbe 4372 1abd e206 84be b53f 1ebd
00000020: a18c 5bbe 20d4 643c 754b 6abe 35d9 d9be
00000030: 6f89 fd3d 3faf 86be 62ff 773d f9cb 8e3c
00000040: 5b63 ebbd c869 42bc f72e 843d 7be5 12bd
00000050: b4c2 e33c cd2e 64bd 9baa eebe 7f87 babd
00000060: 17d8 99be 5cc6 7f3c da3e b0bd 1208 3ebe
00000070: 6361 33be 1897 fa3d 809b 853e a37b 5a3e
00000080: 6980 56bd 7035 52be 9696 23be a561 4abe
00000090: ae42 debc 3011 d9bd b760 5ebd 4d57 34be
000000a0: de63 a9be 45a4 40bd c760 173e ac75 15be
000000b0: fcd5 6b3e 9569 cebd d74c dbbd c6ab 84be
000000c0: 5d21 62bd 9302 97bd 177e a33c 95c7 24be
000000d0: 8548 77be bcbd 9bbe f13e 2dbe 1898 773d
000000e0: 329f 8abe 61b9 363c 464f b1be e07e c8bc
000000f0: 7e7c 15be 3d41 1fbd c581 e5bd eab1 e0be
0.10197005 -0.45799917 -0.084102854 -0.069409594 -0.24539341 -0.037706625 -0.257865 -0.038634975
-0.21440364 0.01396659 -0.22880347 -0.42548528 0.12379729 -0.26305577 0.060546286 0.017431246
-0.1149356 -0.0118660405 0.0645427 -0.03586338 0.027802803 -0.055708695 -0.46614537 -0.09107875
-0.30047676 0.015611257 -0.08605738 -0.18557766 -0.17517619 0.1223585 0.260952 0.21336226
-0.052368555 -0.20528197 -0.15975413 -0.19763811 -0.027131405 -0.105989814 -0.054291453 -0.17611428
-0.33084005 -0.04703166 0.14783011 -0.1459567 0.23030847 -0.10078732 -0.107080154 -0.25912303
-0.0552076 -0.07373538 0.019957585 -0.1609176 -0.24148758 -0.30418193 -0.16918541 0.060447782
-0.2707458 0.011152596 -0.34630793 -0.024474561 -0.14598271 -0.038880575 -0.11206392 -0.43885738

conv2.weight f4 [64, 64, 3, 3]
00000000: 1866 efbc 53da 953c 5537 1b3d 7233 a9bc
00000010: db59 a53b 7e49 da3c 48eb 353c 0b8a df3c
00000020: 2e09 473d 83ca 903c 292f 543c 7ff1 d63c
00000030: 4eab 043d 619c 70bd 75fa 8ab9 706e 26bc
00000040: c08c ecbb 3662 8c3d 120f e13c 8160 3f39
00000050: 99ab 053d 3677 e5bc 27d6 393d 8e84 b93c
00000060: bbbd 71bd 3481 47bd 2e7d 9fbd 5007 1cbc
00000070: ac68 8c3a 6b51 943d ec4b 06ba 61f6 bb3c
00000080: 6eda 8ebc 372d 68bc e06c ad3d 1c9b a33c
00000090: 6d4e f3bc 3ba7 08bd 47c6 eebc 1c22 efbb
000000a0: 3627 1abd 09e7 cfbc 4474 30bd 1473 20bd
000000b0: 34e2 7bbc 9fbb 03bd 1d85 d3bc 02c2 b43c
000000c0: 4289 1abd d605 e0bc cd51 cdbb 3e89 9cbc
000000d0: 8486 3cbc 344d d43b 8bac a8bb dc4b 9cbc
000000e0: 543e 513d 3707 cb3c 7f2b ac3c a31e 013a
000000f0: 1bfc 36bd d955 a3bd 1031 d5bc 4ce3 76bc
00000100: 0e00 8b3c 0365 05bd 40ed 0fbb fd1b a4bd
00000110: b92c 01bc 28d4 6fbd acb8 84bc c868 1bbd
00000120: d8ff f03a 4386 3abd 29a5 0dbd 09fa 30bd
00000130: ad80 aebd d1d5 a13b 0ef8 363c 3cd6 94bd
00000140: 4056 c63c 612c dfbc 3a46 3b3d c0e8 3a3d
00000150: 2a63 e4bc e702 6a3d 7a49 103c 649d c53c
00000160: 47b7 07bd ba6e 35bd aaea 113d dd8c 1b3d
00000170: d175 153d 8f5c 11bd 54fd 2cbd d075 24bb
00000180: b2b5 8ebd bb11 5cbd eb2b 94bc bf30 923d
00000190: 4c9d 5abc f4f1 19bd c400 383c c378 bcbc
000001a0: 9537 533c d8bd 65bb 242b 45bd 4036 a1bc
000001b0: 938c ea3c c363 04bd e2f8 5fbc a7cc 7ebc
000001c0: 2332 86bd 6b54 f43c ed38 5d3c f534 a0bc
000001d0: da6a c6bc bf28 2fbc 1e43 b13a 876e cd3c
000001e0: 645e 0ebd 88cc 933c a61e 67bc f17e fbbb
000001f0: c0ca 8fbd 9b22 58bd 318c c73c 205a 123d
00000200: 3923 543d 5070 0bbc d6e2 003d e65e 1d3c
00000210: b457 b13c 5a20 2d3b 8930 47bd 9ec5 2ebc
00000220: 4f1a c13c e553 2c3d fde7 91bd 9082 cf3c
00000230: 855f 6c3d 6b29 74bc 142b 283b 2edc f0bc
00000240: d2c5 6c3c 4757 8bbc 8f9f fdbc 8b90 a7bb
00000250: e607 7dbd 7d69 0ebd e64f 82bd c1b1 5cbd
00000260: ea46 a1bd ce74 673c 7760 b93a 8738 00bd
00000270: 2c8d 1a3d 1cc3 19bb 4950 6c3c b08d d53b
00000280: bf0b ed3c 1d71 523d f1b1 433d 38ec 15bd
00000290: 7dfb fd3c 4274 b53c 68e7 d5bb e03f 813a
000002a0: 1603 b23c a90a 0bbd e431 b2bc 3caf 1c3c
000002b0: 7f9f 13bc a11f 58bb 3fb8 6abb 3eae a83b
000002c0: ceb9 ab3b fb09 33bc d05c d0bb aa3c 6bbc
000002d0: aa31 1b3d 47af b93b e74b 083d c741 2ebd
000002e0: 3a01 073b 4db1 303c 1860 03bd dff2 23bd
000002f0: c32e 37bc 53b4 1aba 3fe1 10bd 86ce 153c
00000300: d70f e93b 0787 2abd b4e6 2abc 0f2e 293c
00000310: e9ed 9fbc 5eef c5bc 8df4 05bd 30ed a23c
00000320: 9f96 193d cd45 54bd 8138 3bbd c211 533c
00000330: 6f0d 60bd 430f cbbc 1f08 22bd beb0 193c
00000340: b3e6 57bd dcc0 65bd 7b06 393d 97a7 9fbc
00000350: d480 93bc cac3 303c 650c 203c 84ed 093d
00000360: afcd 1c3d 20b9 5b3d 609a 38bd ef3f 203c
00000370: 5e19 a03d add1 e73b 1317 17bd 1b5d 193d
00000380: 4012 2ebd 2005 82bb b336 7abc ba97 5a3c
00000390: ecc4 2d3b 098f fc39 70d9 cebc 95b2 ae3c
000003a0: 27fe a6bd 189b 8ebc 4ea5 043d f576 40bd
000003b0: b500 efbc 0af6 eabb 5a59 aebc 656c 193d
000003c0: ce09 113c 08b7 3d3a 0290 53bd f276 14bd
000003d0: 4a8b 81bb 82a0 b0bb 9471 d9bc 20c6 b6bc
000003e0: 0b3d f53c 18e7 10bd eb80 15bd e3f6 4abd
000003f0: 501e 11bc 9bfc a7ba 67d6 d33c dc80 843a
-0.029223487 0.018292582 0.037894566 -0.020654414 0.005046112 0.026646372 0.011103459 0.027287504
0.04859274 0.01767469 0.012950697 0.026238201 0.03238993 -0.058742885 -0.00026508016 -0.010158166
-0.007218927 0.0685467 0.027473006 0.0001825113 0.03263435 -0.028010946 0.045370247 0.022646215
-0.05901883 -0.048707202 -0.07787548 -0.009523228 0.0010712347 0.07242092 -0.00051230076 0.022944631
-0.01743814 -0.014170936 0.08468032 0.019971423 -0.029700482 -0.03336261 -0.02914728 -0.0072977673
-0.03763505 -0.02537872 -0.04307963 -0.039172247 -0.015373755 -0.03216135 -0.02582031 0.022065166
-0.037728556 -0.027346533 -0.006265855 -0.01910841 -0.01150668 0.00647893 -0.005147522 -0.019079141
0.05108483 0.024783714 0.021016834 0.00049255247 -0.04467402 -0.079753585 -0.026024371 -0.01506884
0.0169678 -0.032567035 -0.002196148 -0.08013151 -0.007884198 -0.058551937 -0.01620134 -0.037941724
0.0018386794 -0.0455382 -0.034581337 -0.043207202 -0.08520637 0.004938819 0.011167539 -0.072674245
0.02421105 -0.027242841 0.04572127 0.045632124 -0.027879316 0.057131674 0.008806581 0.024122901
-0.03313377 -0.04429505 0.035624184 0.037976135 0.03648931 -0.03548866 -0.04223378 -0.0025094636
-0.069682494 -0.053727847 -0.018087348 0.07138204 -0.013343167 -0.03758426 0.011230651 -0.023006802
0.01289167 -0.0035055783 -0.048136845 -0.019679189 0.028631484 -0.032321703 -0.013670178 -0.015551723
-0.065525316 0.02982541 0.013502342 -0.019556502 -0.024220873 -0.010690867 0.0013524031 0.025077118
-0.034757987 0.018041864 -0.014106428 -0.0076750447 -0.07021093 -0.052767377 0.02435884 0.03573048
0.051791403 -0.008510664 0.031466328 0.009605145 0.021648265 0.0026416988 -0.04863027 -0.010667233
0.023572115 0.042072196 -0.071243264 0.025330812 0.057708282 -0.014902453 0.0025660442 -0.029401865
0.014451461 -0.01700939 -0.030959873 -0.0051136664 -0.06177511 -0.03476857 -0.06362896 -0.053880457
-0.07874854 0.0141269695 0.0014143129 -0.03130391 0.03773229 -0.0023462242 0.014423438 0.0065171346
0.028936265 0.051377404 0.04777712 -0.03660223 0.031003708 0.022150163 -0.00652783 0.0009860955
0.021729987 -0.033945713 -0.021752305 0.0095632635 -0.009010195 -0.0032977837 -0.0035815386 0.0051477244
0.0052406555 -0.0109276725 -0.0063587204 -0.014357725 0.03788916 0.0056666466 0.03327551 -0.0425432
0.0020600096 0.010784459 -0.032074064 -0.04002654 -0.011180582 -0.0005901504 -0.03537106 0.009143477
0.007112484 -0.04163268 -0.0104309805 0.010325923 -0.019522624 -0.02416199 -0.032703925 0.01988849
0.03749716 -0.05182438 -0.045708183 0.012882652 -0.05470031 -0.02478755 -0.039558526 0.0093805175
-0.052710246 -0.05609213 0.045172196 -0.019489093 -0.018005766 0.010788867 0.00976858 0.03367378
0.038282093 0.053643346 -0.0450691 0.009780868 0.078173384 0.007074556 -0.03688724 0.037442308
-0.042497873 -0.003967896 -0.01527183 0.0133418385 0.002651508 0.00048171755 -0.025250167 0.021325389
-0.081539445 -0.017407939 0.03238421 -0.046988446 -0.029175142 -0.0071704434 -0.02128284 0.03745689
0.008852435 0.00072370516 -0.05165101 -0.036246248 -0.003953372 -0.005390228 -0.026543416 -0.02231127
0.029936334 -0.03537664 -0.0364999 -0.049551856 -0.008857325 -0.0012816371 0.025859071 0.0010109204

conv2.bias f4 [64]
00000000: 2be8 683b f632 233e c889 813d 9ed0 fd3d
00000010: eb97 29be 9a1d 4a3e d884 593e 7770 bfbd
00000020: 74c7 cfbd 2c07 b4bd 1eea bcbd fc49 a03d
00000030: 1257 773e 5157 89be b2a3 89bb 216e e43d
00000040: 4a50 573d c88d 063e 255a 593e 22c7 b6bc
00000050: 6766 133e 4dfb ee3e 7b79 a33c 403c 87bb
00000060: bf66 1bbc 0dfe f33d 39ba 0dbe efe5 913d
00000070: e4f9 8c3d 63c8 e3be 1226 a2bd b95c eb3a
00000080: e1fe 94bd ceda 953d 5178 6bbe ed9e 0d3b
00000090: a35b 0dbe 7204 d83b b046 b1bc c77e 3ebd
000000a0: b50b 3b3c cc3d 3ebd 162b 56be 1ded 153c
000000b0: e6b8 203e 205c c83d 1289 b5bc 524a a4bd
000000c0: 4e6b 193d 0ad0 483d 8e96 13be fa0b 26bd
000000d0: 9fb3 bd3e e2c3 7dbd 07c3 ccbc 3741 96bd
000000e0: 03dc a23e 2b2f 6abe 049a 2e3e d1dc 63bd
000000f0: 35f3 103e 25d3 aabc 9819 2b3e cadb 9abd
0.0035538774 0.15937409 0.06325108 0.12393306 -0.16561858 0.19737855 0.21242082 -0.09347623
-0.101454645 -0.087904304 -0.09224342 0.078266114 0.24154308 -0.2682443 -0.004200422 0.11153818
0.052566804 0.13140023 0.21225794 -0.02231175 0.14394532 0.46676102 0.019955387 -0.0041270554
-0.009484946 0.11913691 -0.1384057 0.071239345 0.068836 -0.4448882 -0.079174176 0.0017956711
-0.07275177 0.07317124 -0.22995116 0.002160962 -0.13804488 0.006592327 -0.021640152 -0.046507623
0.011416365 -0.046445653 -0.20914873 0.0091507705 0.15695533 0.097831964 -0.022160087 -0.08021988
0.03745585 0.049026527 -0.14412901 -0.040538765 0.37051103 -0.061954387 -0.02499534 -0.073366575
0.3180848 -0.22869556 0.1705094 -0.05563051 0.14155276 -0.020852635 0.16708982 -0.07561453

conv3.weight f4 [64, 64, 3, 3]
00000000: 41be 503d 9a8f 9fbd ee75 ebbc 056f 0ebd
00000010: 2c9d 50bd 417b 88bd 845e e23c e9ec 9ebc
00000020: 4952 8fbd 2d67 40bc 9b2b 7e3d 5d49 383d
00000030: a3c9 05bd 2232 4abc 341a 9a3d ed9a 5ebc
00000040: 477d 64bd 7636 af3c 2f8f 6c3c e791 f13c
00000050: 5747 813c 7c81 12bd d2dd 83bb fa43 ab3b
00000060: a702 a8bc ea38 4ebd 3370 9f3c b26b 5bbc
00000070: 3214 183c 8f66 85bc 7dd6 7f3c b630 353d
00000080: 8887 863c c874 43bc 603a bcbb 5912 22bc
00000090: 3f88 1ebd 8a0b c9bc 4c9f f6ba 6a8a 71bb
000000a0: 868c 76bd 78b0 a5bd 135f a5bd 8486 f5bd
000000b0: c355 6ebc cc0b 633d d96f 283b faa3 623c
000000c0: c334 1ebd 3c27 983c a71f 803d 5ae1 b3bb
000000d0: 7eed 7cbc e3cb d6bb 1806 6ebd 55d4 63bd
000000e0: 5436 9dbd 29b1 ffbc 3697 b9bd 0cb5 8dbd
000000f0: 9a4c 823d 44ef 213c 2b46 53bd 8404 893d
00000100: d93a bbbb d8d5 b0bd 7994 d5bc 44e1 63bb
00000110: e428 38bd 28eb d7bb bcd2 113d 30e1 613d
00000120: 9090 123d 8711 2e3d 6e27 8ebb 5b26 933d
00000130: b03e 3b3e 6360 b93d b18b 0d3d fdb7 203c
00000140: 7f51 9c3d e8a2 783d 0ac0 98bc 11db 7cbc
00000150: 2d1c 07bd 65c3 b6bb e7be 653d 77de 60bd
00000160: ddfb 97bd b6fb cabc 3a1b a43c 99c3 59bd
00000170: 12ff 223d e8c4 cabb 7ba5 19bc 2830 363d
00000180: f95a 9abc 1c67 5f3c 0cfe a8bc 5c6a a33b
00000190: 1247 6c3c e49d 45bc 86c5 e93c a73b fa3d
000001a0: 2418 453d 02d2 9d3c 75fc 93bc d2ed ac3d
000001b0: c9d8 91bd 032b 073d f6c1 0c3d d46c bd3c
000001c0: e571 d6bb c0ae 943d 234a d33d 357f 633c
000001d0: 3f1a 7cbb 4617 693d 832a 963d b780 b6bd
000001e0: 0a93 04bc c308 353d 404a 25bd 4753 a1bd
000001f0: 29d2 763a 8918 623d e792 66bc 9c12 4d3c
00000200: d891 c3bc bf7b 28bc 7b28 a23d 2b92 9a3d
00000210: 6db1 5d3d df1a b83b a749 893d 948a 433d
00000220: 8e0c 413c 4fbb 8abb d34e 1abd 24fe 9f3c
00000230: e38a 03bc a2ad 9ebd 66ce 2e3b c056 023d
00000240: 6fff 73bc 15a3 27bd 7246 57bd d008 6fbc
00000250: 4e33 1cbd 985b 84bd c9e0 6fbc bc36 b93a
00000260: a0e2 513d a4a9 b0bc 172c 4a3b 7683 a33c
00000270: 62c4 093c 6d89 0ebd e2d0 3a3c 8c3a 3ebd
00000280: 8184 72bc a60f 10bd 7607 34bd 1273 87ba
00000290: 4472 56bb 18f8 033c cccd 53bc 89dc 603d
000002a0: 48ca 393d 3475 c8bc 5052 9dbc 6e32 48bc
000002b0: ae2c 3dbc 2bb4 8bbb b040 253d f61c 90bc
000002c0: 4b88 23bc 48a4 1e3d ff13 56bc 6540 56bc
000002d0: 489a 903c 406f fb3a d8c1 23bd e5b8 bc3c
000002e0: 807c 233c 23c8 163c 1f7f f63c 6461 22bd
000002f0: 817b e63c 77c3 433d 6be4 67bd 832b 5abd
00000300: ef5e 383e 225f 913d 4db5 b3bd c65f 933d
00000310: 7a2c b23d 7126 0f3d f8b8 aa3c a774 44bb
00000320: 6437 0d3d 7755 bb3c 5fdc 13bb a03e 90bc
00000330: 553e 903c a1c6 96b7 8959 2c3c 616c 643c
00000340: 8af2 063d ac33 8f3c a4b5 713c f6ee 223d
00000350: 93ca 003d c55f aabc 38e1 38bc 5b62 e7bc
00000360: a090 d23d 51fe 163d 4b18 41bd 2f51 103d
00000370: b138 2a3c 7412 c33d 697d acbd 5fd0 abbd
00000380: f70a 773d 4daa 40bd 9260 9ebd 71ea 53bc
00000390: 151e 4ebd 1424 d4bd 416c d5bd bff7 363d
000003a0: 4d4a 8abc 7e9b a2bd 5e05 84bc 4645 2dbc
000003b0: 4eee 43bd 05cd 9c3c e9c3 cabc 01de 60bd
000003c0: aaa4 04bd 52e2 0abd b960 09bd ae9a 26bd
000003d0: c818 edbb 6dca 25bd 247d 67bd a84b 23bc
000003e0: 0b29 143c f214 2c3d 10be d53c 2f3d ea3c
000003f0: 18d3 10bd 65cb 813c 7092 503d 3f6e 703b
0.05096269 -0.07791062 -0.028742757 -0.034773845 -0.05093114 -0.06664134 0.02763296 -0.019400077
-0.069981165 -0.011743349 0.062053304 0.04499184 -0.032663 -0.012341054 0.07524529 -0.013586742
-0.055783536 0.021388274 0.0144384345 0.029488517 0.015781088 -0.035768017 -0.004024246 0.0052266093
-0.020509077 -0.050347246 0.01946268 -0.013392376 0.009282159 -0.016284255 0.015615103 0.044235907
0.016422048 -0.011929698 -0.0057442635 -0.00989207 -0.038704153 -0.024541635 -0.0018815785 -0.0036856183
-0.060192607 -0.08090299 -0.080747746 -0.119885474 -0.014546814 0.055431172 0.0025701432 0.01383304
-0.038624536 0.018573396 0.06256037 -0.0054895105 -0.015437482 -0.006555067 -0.05811128 -0.055622417
-0.07676378 -0.031212406 -0.09062044 -0.069192976 0.06362267 0.0098837055 -0.05158059 0.066903144
-0.0057138023 -0.086345375 -0.026071774 -0.003477172 -0.04496087 -0.006589312 0.035601363 0.055146396
0.035782397 0.042497184 -0.0043381965 0.0718505 0.18285632 0.090515874 0.03455705 0.009809491
0.07632732 0.060702235 -0.018646259 -0.015433089 -0.032985855 -0.005577492 0.05609026 -0.05489966
-0.07421086 -0.024778228 0.020032514 -0.053165052 0.039794035 -0.006188024 -0.0093778325 0.04447952
-0.018842207 0.013635423 -0.020628951 0.0049870443 0.014421241 -0.01206157 0.02853657 0.12218409
0.048118725 0.019265179 -0.018064717 0.08443798 -0.071214266 0.033000004 0.034364663 0.023123182
-0.006544339 0.072598934 0.10316875 0.013885309 -0.0038467792 0.05690696 0.07332327 -0.08911269
-0.0080916975 0.04419781 -0.040354013 -0.07877212 0.00094154716 0.05519918 -0.01407311 0.012516644
-0.023873255 -0.01028341 0.07917877 0.075474106 0.054124285 0.0056184377 0.06703501 0.04773958
0.011782778 -0.0042337547 -0.03767283 0.019530363 -0.008028719 -0.077479616 0.0026673316 0.031821012
-0.014892443 -0.04092701 -0.052557416 -0.014589503 -0.038134865 -0.064627826 -0.014640995 0.0014130692
0.051241517 -0.021565266 0.0030849034 0.019960146 0.008408638 -0.03479903 0.011402341 -0.046442553
-0.014802099 -0.035171174 -0.043952428 -0.0010333976 -0.0032721916 0.008054756 -0.012927484 0.05489782
0.045358926 -0.02446995 -0.019204289 -0.012219055 -0.011546297 -0.004263421 0.040344894 -0.017591935
-0.009981225 0.03873089 -0.013066291 -0.013076876 0.017651692 0.0019182935 -0.039979786 0.023037383
0.009978414 0.00920299 0.030089913 -0.03964366 0.028135063 0.04779383 -0.05661432 -0.053264152
0.18004964 0.07098223 -0.08774815 0.07196002 0.086998895 0.03494877 0.020840153 -0.0029976757
0.034476653 0.022867901 -0.0022561771 -0.017607987 0.017607847 -1.7973887e-05 0.010519394 0.013941855
0.032946147 0.017480694 0.014752779 0.039778672 0.03144319 -0.02079762 -0.011284165 -0.028245142
0.10281491 0.03686363 -0.04714231 0.035233673 0.010389493 0.09525004 -0.084223576 -0.08389353
0.06031319 -0.04703741 -0.07733263 -0.012934313 -0.050321657 -0.10358444 -0.104210384 0.044669863
-0.016881132 -0.07939814 -0.01611584 -0.010575598 -0.047834687 0.01914073 -0.02475162 -0.05489922
-0.0323836 -0.033907242 -0.033539508 -0.040674858 -0.00723562 -0.04047625 -0.056515828 -0.009966768
0.0090429885 0.042012163 0.026091605 0.028593628 -0.035357565 0.015844056 0.050920904 0.0036686806

conv3.bias f4 [64]
00000000: 8095 dabd 9e18 7e3d 986c fd3d ea90 dfbc
00000010: c06c e43d 2615 81bd 87ff 813e dc3b 02bd
00000020: 60c3 de3e 95be c23c 5037 bb3b 119b a23d
00000030: aba8 a53d ae7f c3bc 96e8 373e 0f10 73be
00000040: 9dea e3bd 373f 8c3d 20bd 00be ab34 18bd
00000050: ef47 0d3e fd12 a2bc ba43 863e 330c 04bd
00000060: 8848 2fbd f772 afbc 01a7 e53d 982b 693d
00000070: c02f 20be 6b94 0d3e e601 903d 6514 b03c
00000080: 334a 3abd adb9 203d fcd9 0ebd 474b db3c
00000090: 05c1 133d 3be3 93b9 90ae 41bd ac60 f5bb
000000a0: 97ba 60bc 6d21 eebd be19 803d 1fd8 9bbc
000000b0: 4071 383e 511e 6a3d 96fe 2ebe 44cf 0abc
000000c0: 8cbb b93e 9cbe 863c 8a75 043d 6b1f 133d
000000d0: 84c7 623e 720e 24be 5b65 213d fa1c 9bbd
000000e0: b864 1d3d e027 b43e be16 8b3d 4106 d4bd
000000f0: 2929 5b3d 6470 18be 1385 a33e 3c41 a13e
-0.10673046 0.062035196 0.12374228 -0.02729078 0.11153555 -0.06302862 0.25390264 -0.031795368
0.43508434 0.023772517 0.005713381 0.07939733 0.080888115 -0.023864593 0.17959818 -0.23736595
-0.11128733 0.06847995 -0.12572145 -0.037159603 0.13796972 -0.019784445 0.26223546 -0.032238197
-0.04279378 -0.021417124 0.11213494 0.05692634 -0.15643215 0.13826148 0.07031612 0.0214941
-0.04548092 0.039239574 -0.034875855 0.026769293 0.03607275 -0.00028207325 -0.047285616 -0.007488331
-0.0137163615 -0.11627469 0.0625491 -0.019023953 0.18011951 0.05715782 -0.17089304 -0.008472268
0.362759 0.016448312 0.032338656 0.035918634 0.22146422 -0.16021135 0.0394033 -0.07573886
0.03842613 0.35186672 0.06791447 -0.10352755 0.05350605 -0.14886624 0.31937465 0.31495082

fc1.weight f4 [100, 1024]
00000000: 6a12 553d ae23 29bc 16d3 93bd 1c39 82bd
00000010: 414c 5cbc ff14 d0bd 6fe5 9bbd a7cc 6a3d
00000020: 6e93 26bc cd13 9cbd 548b 8abd 6018 a43c
00000030: a4b1 543b f65c 2ebc 36e9 55bd 1bdb 27bc
00000040: 8705 c4bc 0b96 5c3b c22a 0fbd 7076 073b
00000050: 93cc f3bc d6fc a13d 0e64 b33c dd0d 4fb6
00000060: bfff 8e3d fcf2 153d 6119 da3a 0f94 083d
00000070: 2f5d adbb cd78 5a3b 5e6a 1fbd aa41 dcbc
00000080: 50ef 9e3c 41ae e63c 81de 9e3d c6de 423d
00000090: 37bc 883c a3a3 cebb 1b56 95bc d44b 503c
000000a0: 93bd 4ebb 5c89 bb3c 441a 0fbc de49 243c
000000b0: 24d3 443c c4f9 353d 5260 003d 9d08 0e3d
000000c0: 4e07 553d f9e5 363d cc2f 8b3c 0c39 ad3c
000000d0: 2b7b a8bb 35a9 42bd 2d34 29bd b394 24bc
000000e0: b6cc a9bb 1563 39bd c324 27bd 03f9 083d
000000f0: 8f20 c0bd 61f6 27bd db6c dbbc e6b4 acbd
00000100: ff94 11bd a2d2 453b f24e 57bc 9c91 f8bc
00000110: 0c72 0c3d 9076 37b9 786b 293d d881 173c
00000120: 2ac1 663d c362 853d 2563 aa3b d091 00bd
00000130: a276 503c 98f4 503c 6e6e f53b f3b7 15bc
00000140: bfa6 aa3c f5f9 81bd ccaf 183b f2c9 6ebc
00000150: b52a 8438 9c35 39bd 738e 88bc 6ad8 0e3c
00000160: 1af9 68bc f0b1 bfbd 34da d7bd e444 c2bb
00000170: ae87 92bc efbf a2bc 6932 b13c 71b0 b83c
00000180: 4c41 1abc d384 353d cf64 6e3d bfaf 58bd
00000190: e7ae c53c 2736 a6bc 843b 813d dfc4 443c
000001a0: 3187 943c 25b8 d43c 6107 76bc fbb2 6a3c
000001b0: 7cc0 9fbc a56f ff3c 5ac8 27bc f231 d63c
000001c0: cc08 c5bb 0647 ed3b a081 4c3b 7260 513c
000001d0: f67b 9abc f7fb a33c 61ca 08bd 49d2 8bbc
000001e0: 157e 5ebc 808f ac3c f6a6 c63c e472 143c
000001f0: ebf8 103c 0e3f e5bc fc60 10bd 3d54 d13c
00000200: 3c88 82bd 798c 8a3d 7d39 503c 79a9 6abd
00000210: 7bf3 f0bc 01ed 9f3d 377e 0d3e a4f1 c3bc
00000220: 0420 14bc 12f1 2dbd 57be 2ebc 7dea ddbb
00000230: f05c 933d 0ba9 6c3d 319a 7b3c 85b0 9c3d
00000240: 2775 3b3b 3970 773c 8e46 3d3d 3d41 e73c
00000250: cee3 913d 152b 9cbd 89ff 6fbd f4d8 613d
00000260: 247f 1a3d 09a1 7bbd 53b3 abbd a96d b9bb
00000270: 1327 5e3d cbc4 833c e787 0cbd a200 613d
00000280: 8455 dcbc 7284 263c 31df f93c d961 cf3b
00000290: ef05 8abc ede3 81ba 6393 b53c af55 9d3c
000002a0: c1ee a3bc 138d 1fbb cb0c 16bb 7b1e 783c
000002b0: 2ed6 4a3c 7413 993c be9c 94bc f352 61bc
000002c0: 4138 283d 40fd 723c 15be 7c3d 7a2f 683d
000002d0: 9ed5 66bc 28cc 5fbd 8fda 2ebc ae40 c73b
000002e0: d118 85bd d369 723c 0864 213d 9f95 bd3a
000002f0: 04bf 8cbd a7fc 87bd 10c6 c7bc 8bd0 563d
00000300: aa05 c73c 3fdc c83b 82ec dbbc 4a98 c73a
00000310: 048e beb9 fd40 da3c 7a02 9c3b 28ce 8ebc
00000320: ed6d ff3c 9851 173d 87f9 8e3c d903 8dba
00000330: 8b17 123c b136 b13c 3e18 c7bb 30b9 f2bc
00000340: e849 04bd 16ce 2ebd bd0e c03b 8b65 4f3d
00000350: 187d 203c 00d5 dbbc 0d61 5cbd bfe9 533c
00000360: bef5 d9bc dd19 743b 8192 2f3c f857 bf3c
00000370: b2c8 823c b70c 8dbd ae81 8bbd 91fa b1bb
00000380: 9cc0 cabc a57e b7bd 53c4 febd a1fc 053d
00000390: 90a6 c7bc 7653 273d adc0 4d3d 5b3c 18bd
000003a0: c21d 013d 886f 933d 7c3b 183d 0d79 d4bd
000003b0: 26e3 3abd bd95 8abd 9a4b 0bbd 187c ac3b
000003c0: c1b4 10bd b801 7bbd 5972 f0bc fe2b 703c
000003d0: f129 0d3d 69df a13c a188 f13c e714 913c
000003e0: e497 b13c 6050 543d 6e12 f03b e192 3a3a
000003f0: 4058 52bd 666f 3b3c f364 5f3c 416c adbc
0.052019514 -0.010323448 -0.07217996 -0.06358549 -0.013445915 -0.10160255 -0.0761212 0.057324078
-0.010166986 -0.07620964 -0.06764856 0.020031154 0.0032454515 -0.010642281 -0.05222436 -0.01024511
-0.023928417 0.0033658769 -0.034952886 0.002066996 -0.029760635 0.07909553 0.021898296 -3.0853473e-06
0.069823734 0.03660868 0.0016639644 0.033344325 -0.0052906494 0.0033336163 -0.0389198 -0.02688678
0.019401222 0.028159263 0.07757283 0.047575735 0.01669131 -0.006306128 -0.018229535 0.012713391
-0.00315461 0.022892646 -0.00873429 0.010027377 0.0120132305 0.04442765 0.03134186 0.034676183
0.05200892 0.044652913 0.016990565 0.021145366 -0.005141636 -0.04752465 -0.041309524 -0.010045218
-0.005181874 -0.045260508 -0.040806543 0.0334406 -0.0938121 -0.04100645 -0.026785305 -0.08432941
-0.035542484 0.0030185361 -0.013141381 -0.03034287 0.03428845 -0.00017496408 0.041362256 0.009247266
0.05633656 0.06512978 0.005199807 -0.031389058 0.012723597 0.012753628 0.007489971 -0.009138095
0.020831464 -0.06346504 0.0023298142 -0.014574515 6.302205e-05 -0.04521714 -0.016669488 0.008718589
-0.014219547 -0.09360111 -0.10539666 -0.0059286226 -0.017886963 -0.019866912 0.021630483 0.022545071
-0.009414982 0.044316124 0.058201607 -0.05290198 0.024131251 -0.020289494 0.0631018 0.012009828
0.01813087 0.025966713 -0.015016408 0.014324899 -0.019500963 0.031181166 -0.010240639 0.026146863
-0.0060130116 0.0072411327 0.0031205192 0.012779342 -0.018857937 0.020017607 -0.03339613 -0.017068045
-0.013579865 0.02106452 0.024249535 0.009060595 0.008848409 -0.027984168 -0.03524874 0.025552863
-0.06373641 0.06765074 0.012709019 -0.057290528 -0.029412976 0.07808877 0.13817678 -0.023918934
-0.009040836 -0.04246623 -0.010665498 -0.006772338 0.07195461 0.0577784 0.015356586 0.07650856
0.0028603764 0.01510244 0.046209864 0.02822935 0.071235284 -0.07625405 -0.058593307 0.055138543
0.037718907 -0.061432872 -0.08383813 -0.0056588245 0.054236483 0.01608505 -0.034309294 0.054932244
-0.026896246 0.010163413 0.030501934 0.006328803 -0.016848532 -0.0009909846 0.022165006 0.019205896
-0.020011308 -0.0024345561 -0.0022895809 0.015143986 0.012380166 0.018686034 -0.018141147 -0.013752687
0.041069273 0.014830887 0.061704714 0.056685902 -0.014089016 -0.054638058 -0.010672226 0.0060807085
-0.06498874 0.014795738 0.039402038 0.0014464146 -0.06872371 -0.066399865 -0.024386436 0.052444976
0.024294693 0.006129771 -0.026846174 0.0015227881 -0.00036345434 0.026642317 0.0047610374 -0.017432287
0.031180346 0.03694305 0.017452968 -0.0010758593 0.008916746 0.021632524 -0.006075888 -0.02962932
-0.032297045 -0.042677008 0.005861132 0.05063395 0.00979545 -0.026834965 -0.053803492 0.012934147
-0.026606437 0.003724686 0.010716082 0.023357376 0.01596484 -0.06887191 -0.06811844 -0.005431481
-0.024750046 -0.089597024 -0.124397896 0.03271163 -0.024371415 0.04085108 0.050232578 -0.037166934
0.03152252 0.07199007 0.037166104 -0.10374651 -0.045626782 -0.067668416 -0.034007646 0.0052638166
-0.03532863 -0.061280936 -0.0293514 0.014658926 0.034463827 0.01975985 0.029484095 0.017710162
0.021678872 0.051834464 0.0073264157 0.00071172236 -0.051353693 0.011440134 0.013634908 -0.021169784

fc1.bias f4 [100]
00000000: e518 243e c426 073d e92c 943d e09b e43c
00000010: d1f5 90bb 8639 9b3c b6eb 3a3e 45ca 143a
00000020: 098e 9c3d 505c adbc 9394 00be 94f9 153d
00000030: c40e 273e 4728 9ebc 6ae9 a43d ea2b 65bc
00000040: 7759 a53c 6ac9 703d 9286 f3bc 9c10 d9bc
00000050: bb7f fcbd c5c2 cabd f2af a23c d947 f8bd
00000060: 57b2 d3bc d5e1 c4bd 7a4d 92bc c0f6 dbbb
00000070: 70f5 173c 115f 17bc 5865 acbb 1c6a 653d
00000080: 25c3 553c 8f9b 193e f64b 2dbb b17f 8d3c
00000090: 7af0 a13b 1b56 e5bb d0e9 593d ea1f 863c
000000a0: 1e59 3b3d f5fe 283d 5733 85bb 3004 b9bd
000000b0: 334c 1b3b e4dd 5b3e 9ce4 933b 2852 0e3a
000000c0: 2418 ecbc 1c87 19be 1065 87bc 8a3e 3e3d
000000d0: 8863 69bd 94ae 343e 5b38 7d3d b97b 2dbc
000000e0: 8394 013e abac 733c 36f1 58bb 1c30 8a3c
000000f0: 392e 573e 64a4 0abc 602d 963d 97ee 173d
00000100: 1c1d b03d 12c2 d83d bd41 823b 8cd7 c0bb
00000110: 9550 04bd 48db 823c 9efc 933d 9086 9ebc
00000120: 4677 d73c 42ee 0ebb d677 b6bc 8263 e03d
00000130: f0b6 373b da60 09bd 5e7b 5fbc 37cb 583c
00000140: 7b51 79bd e3c8 113e 5f20 b43c c691 ca3d
00000150: ab14 653d c748 193e edd7 1f3e fb4f ecbc
00000160: e706 81bd 02ba 873d a6e1 aaba 73a5 073e
00000170: 9910 04bc a6eb 2fbd dd50 673e 6362 b4bc
00000180: c425 203c 1070 c13d b4c7 81bd 0862 87bd
0.16025122 0.032995954 0.072351284 0.027906358 -0.004423835 0.018948328 0.18253979 0.00056758925
0.076442786 -0.021162182 -0.12556677 0.03661497 0.16314226 -0.019306315 0.08052333 -0.013987521
0.020184262 0.058785833 -0.029727254 -0.026497178 -0.1232905 -0.099004306 0.019859288 -0.12123079
-0.025841875 -0.096133865 -0.01785921 -0.0067127645 0.009274825 -0.009238974 -0.0052611046 0.056009397
0.013047014 0.15000747 -0.0026442981 0.017272802 0.004941997 -0.00699879 0.053201497 0.01637264
0.045739286 0.04125877 -0.004064958 -0.09034002 0.0023696541 0.21471363 0.0045133363 0.00054291124
-0.028820105 -0.14992946 -0.016527683 0.04644636 -0.056979686 0.17644721 0.061821323 -0.01058858
0.12654309 0.01487271 -0.0033102757 0.016868643 0.21013726 -0.008462045 0.07332873 0.03709277
0.08599302 0.10583891 0.003975122 -0.00588507 -0.03230341 0.015973702 0.07225917 -0.019351274
0.026301991 -0.0021809493 -0.02227394 0.109564796 0.0028032623 -0.03353963 -0.013640253 0.013232044
-0.06086872 0.14236788 0.021988092 0.09891085 0.055927914 0.14969169 0.15609713 -0.028846731
-0.06300145 0.06627275 -0.0013037219 0.13246708 -0.008060598 -0.04294934 0.2258944 -0.02201957
0.009774629 0.09445202 -0.063369185 -0.06610495

fc2.weight f4 [10, 100]
00000000: a2f7 18be ed56 3f3e 42bd 0cbd 1638 333e
00000010: 8b8e 33be 3f64 81bd 0b54 e2bc 468f 48bd
00000020: 2374 893e 0317 4bbd b69a 43bd 1c1a 893e
00000030: c16c d73b 73d5 4bbd 07cc 283d fc88 243d
00000040: 670b 013e 46d7 a2bd aab6 393e e6b9 b0bc
00000050: 0674 20be 4abb 2c3e 2146 ab3b e7f2 18bc
00000060: b84b bcbd 81e2 4dbd 1866 0b3c 20a6 a9bd
00000070: 2d6d 61bc e53d 18bd f16d 363e ed11 61be
00000080: 0772 4ebe dde4 55be b103 073e 4ab6 35ba
00000090: 94ca 82bd fbfe f2bd 40d7 68be fbba 8c3e
000000a0: f145 db3d 51e3 08bd 4b54 2ebd 4536 933e
000000b0: 8257 223e 185f 9cbe d97e 8c3e 1c2d 283d
000000c0: 7396 0a3d 2ea6 9a3c 9f75 aa3d 0d8c 1abd
000000d0: ad73 233e a3d8 4f3d 6cb8 bc3d 56cb 85bd
000000e0: f3b0 583e ce53 ca3d 2b49 b23d ce5f 3e3d
000000f0: 5377 4cbe 3807 21ba e3c0 10bd 9a97 dabb
00000100: 6525 42be 44bf cfbd 4021 1ebe c465 123e
00000110: 6f75 99be 86b1 0e3e 244e 8fbd e4a4 a53d
00000120: 71aa 12be ee9d 423c 1c8f 8b3d 0702 1dbe
00000130: 0c60 193e 3e50 3a3e a505 ecbc a576 0f3c
00000140: 9c77 5abd 00b4 89bd 7ceb c13d 83b5 23be
00000150: fd1d c03d d197 fd3c b720 5e3e 1ccb d9bd
00000160: f5a9 09be be41 92be 8151 ca3c a856 82bd
00000170: dc8c dc3e 663e 4a3e acf5 1bbe 743c 593e
00000180: a7c0 c5bc e3d7 333d e44a b53d 3de2 4d3e
00000190: 4a17 16bd 62af 383e 33eb 45be 778a 4ebe
000001a0: 4bf6 493d 8ef2 2c3c cbf2 2abe 5d37 043e
000001b0: 2f4d 25bd c4e7 9d3c 3764 7b3e 4eb7 19be
000001c0: 2646 22be f068 0d3e de44 efbc 27f6 8b3c
000001d0: 2535 43be e5e8 12be 3dbe 3a3e bec3 863d
000001e0: eb2f a33e 3157 4c3e d0ca eb3c 4da4 513e
000001f0: 7b17 0abd bf04 413e 27c1 19be 9a55 b03d
00000200: 5d6a 90bd f529 bebd 597e 8b3d 9bdf 313d
00000210: 3e7a 5cbd 03f0 1dbe db3b 003e 6edb a0bd
00000220: f53a 8fbd 49b2 a1bd 2047 453e e2a6 65b9
00000230: 0d94 653e 2d3b 9a3e cbb9 c23c 246a 9e3e
00000240: a4f6 7c3b 91be 75be 1360 b2bd 3578 f33b
00000250: def6 aabd f954 40bd cbcf c4bd 3807 6d3d
00000260: 8b3b 713e d85b 29be a4b0 37be 1278 36be
00000270: 504f 7bbe 3533 113e 3cee aebc a062 b53d
00000280: ec4b 84be e241 213d c620 debb 9ace c73d
00000290: 45a0 4e3e 740b 0abe 0313 52bd 1651 823d
000002a0: c35b dc3e ff10 73be af9c afbe 4ec4 6f3d
000002b0: aff1 9d3c 90a6 963d 6843 3d3d d98f ecbe
000002c0: 3110 463c 454b 10bc 555a 2dbe 1d9c fb3d
000002d0: 92a5 253d f246 12be abcf 8d3e 501e 34be
000002e0: c3de 163d 2d70 a5bb 6eb0 99be 7167 e8bc
000002f0: f476 d2bd d9ac 3e3b f313 283d b0d7 17bd
00000300: 84db 44bd e00a b33d 56a4 21be 3c62 6fbd
00000310: 8867 04be 37b2 90be 1234 0f3e f9ca 1f3c
00000320: e31e 7bbe d0b4 8abd 930d c23d 3e29 30be
00000330: 50ec 3e3e 1450 2dbe 2b7d fabd feaa 0ebe
00000340: 95cb d0bd e561 9e3e 05f0 74be 4912 7f3e
00000350: b4b0 ce3d e0a2 14be d2d3 e93d dd05 f43d
00000360: b709 c13e c6b9 35bd b0bf 403e 6467 36bd
00000370: 0992 033e 93a5 173e af33 cebb c361 793d
00000380: ce90 babd 8bcb 21bc b421 673e 66dd 97bd
00000390: dc9f 52bd 5e9c e6bd d284 fd3d 1208 6bbe
000003a0: d2fd f9bd efcd e3bd cfb0 7dbd 9a8e bfbd
000003b0: 7541 7bbd d010 b03d ed0a 2c3e 3f30 3cbd
000003c0: 39d1 9fbc e382 27be f93a 283c 0762 57bd
000003d0: 8a27 453e edab d93d 121c 36bd 25b7 65bc
000003e0: 0188 4d3d 341b 5abe ad5b d13d c215 3c3d
000003f0: 22eb 973b 6dbb 9f3e e7b4 043e 6e72 923d
-0.14938214 0.18685503 -0.034360178 0.17501864 -0.17534845 -0.063179485 -0.027627965 -0.04896476
0.26846418 -0.049582493 -0.047754966 0.26777732 0.006574244 -0.049764108 0.0412102 0.0401697
0.12602006 -0.079512164 0.18136087 -0.021573018 -0.1566926 0.1686832 0.005226866 -0.009335256
-0.0919413 -0.05026484 0.008508228 -0.08283639 -0.01375894 -0.037168402 0.17815377 -0.21979494
-0.20160685 -0.20888086 0.13185002 -0.0006931765 -0.06386295 -0.1186504 -0.22738361 0.27486405
0.107067 -0.03341991 -0.042560857 0.28752342 0.15853694 -0.305413 0.27440527 0.041058645
0.033834886 0.018878069 0.08323216 -0.03773122 0.15962096 0.05074371 0.09214863 -0.06532924
0.21161251 0.09879266 0.08705362 0.046478085 -0.19967394 -0.0006142738 -0.0353402 -0.0066709043
-0.18959577 -0.10143903 -0.15442371 0.14296633 -0.29972407 0.13934907 -0.06997326 0.08088091
-0.1432283 0.011878474 0.06814405 -0.15332805 0.14978045 0.18194672 -0.028811285 0.008756314
-0.053336725 -0.067237854 0.09468743 -0.1598721 0.0938072 0.03095618 0.21692167 -0.10634443
-0.1344374 -0.28565782 0.024697067 -0.063641846 0.43076217 0.19750366 -0.15230435 0.21214467
-0.024139715 0.043907057 0.08852175 0.20105834 -0.036643304 0.18035653 -0.19328003 -0.20170008
0.04930715 0.010555876 -0.1669418 0.12911744 -0.04035681 0.019275554 0.24549948 -0.15011331
-0.15847072 0.13809562 -0.029207643 0.017085148 -0.19063242 -0.14346655 0.18236633 0.065803036
0.31872496 0.19955136 0.028783232 0.20472832 -0.0337138 0.18849467 -0.15015088 0.08610077
-0.07051537 -0.092853464 0.06811208 0.043426137 -0.053827517 -0.15423588 0.12522833 -0.07854353
-0.06993667 -0.07895333 0.19265413 -0.0002190131 0.22419758 0.30123273 0.023770234 0.30940354
0.0038599158 -0.23998477 -0.08709731 0.0074301013 -0.083478674 -0.046956036 -0.09609946 0.057868212
0.2355787 -0.16538942 -0.17938477 -0.1781924 -0.24541974 0.1417969 -0.021353833 0.08856702
-0.25839174 0.03936947 -0.0067788092 0.09756203 0.20178325 -0.13480932 -0.051287662 0.06363122
0.4303876 -0.23736952 -0.34299228 0.05853682 0.019280283 0.07355988 0.04620686 -0.46203497
0.012088821 -0.008807008 -0.1692899 0.122856356 0.040441103 -0.14284876 0.276975 -0.17589688
0.036833536 -0.005048773 -0.30017418 -0.028369637 -0.10276595 0.0029094724 0.04103465 -0.03707093
-0.04806091 0.087423086 -0.15785345 -0.058443293 -0.12930119 -0.28260967 0.13984707 0.009752982
-0.24523501 -0.067727685 0.09475245 -0.17203233 0.18644834 -0.16925079 -0.12230905 -0.13932416
-0.1019508 0.30934063 -0.23919685 0.24909319 0.10092297 -0.14515257 0.11417355 0.11915181
0.37702724 -0.04436662 0.18823123 -0.044532195 0.12848677 0.14809255 -0.0062927823 0.06088425
-0.091096506 -0.009875189 0.2257145 -0.07415275 -0.051421985 -0.112602934 0.12378849 -0.22952297
-0.122066155 -0.11123263 -0.061936196 -0.09353371 -0.06134172 0.08596957 0.16801043 -0.04594445
-0.019508945 -0.16358523 0.010267966 -0.05258372 0.19253364 0.10628495 -0.044460364 -0.014020716
0.05017853 -0.2129944 0.10222564 0.045919187 0.0046361843 0.31197682 0.12959634 0.07150732

fc2.bias f4 [10]
00000000: 014f a6bd 2835 0abf 8107 993d 9756 863e
00000010: fdee 1b3f fa2f 64bd cb8c 253e 51d9 8cbe
00000020: 0398 233e cdcd 52be
-0.081205375 -0.5398736 0.074721344 0.26237938 0.6091154 -0.055709817 0.1616699 -0.2750955
0.15975957 -0.2058632
